data.pth (torch, 8810 bytes, 6 tensors)

l1.weight f4 [8, 129]
-0.15842253 -0.18642452 0.6263481 0.2551304 -0.11712376 -0.15189783 -0.1958452 0.7013183
-0.20114017 0.4701193 -0.67519236 0.47773498 -0.08869945 -0.6778143 0.97449625 -0.029877823
0.5221209 -0.17494512 0.23445104 0.36223614 -0.46585485 -0.46963084 0.36605263 -0.122086115
-0.29996762 -0.12130817 0.45729592 -0.03854515 0.44997856 0.11319684 0.4934449 0.5065704
0.5392409 -0.079500645 -0.042721957 -0.4371596 0.8791279 -1.0387083 -0.46595514 0.38521102
0.77833927 -0.46590975 -0.09137257 -0.4658229 0.7576953 0.20923957 -0.2607022 0.23297477
0.07581758 0.6363245 -0.46588787 -0.5330017 0.5450698 0.7174179 -0.4194262 -0.30918697
0.7668458 0.6804936 0.33009857 0.84572715 0.864816 0.8104898 0.047205593 0.8595326
-0.25581932 0.27900544 0.28932324 0.28503364 0.4030942 -0.02942158 0.55511284 -0.56474084
0.5294568 0.75940835 0.45481434 0.5264443 -0.331652 0.56347823 -0.59173864 0.24695256
-0.22613907 0.25841895 -0.3503321 -0.35959026 0.45501718 0.538055 -0.50683993 0.33183366
-0.15800507 0.6952767 -0.292371 -0.34479317 0.46573836 -0.7243225 0.5455327 0.52990496
-0.46587202 -0.40010813 0.47678614 0.4865292 -0.45749205 -0.09500821 -0.45050192 0.5904363
0.213759 -0.491089 -0.22292595 0.4381489 -0.16590418 0.12193531 0.36563256 1.0462426
-0.3408623 -0.16598365 0.34628603 -0.5068495 0.27770436 0.6941945 0.25594428 1.0385143
0.63589984 -0.4718337 0.0980859 0.37239206 0.23128745 0.34945136 0.44487497 0.49217936
0.2495692 0.5201097 0.33504713 0.32982856 0.43025288 0.39296734 0.41898167 0.4620878
0.09422721 -0.15768096 -0.30134928 -0.28217584 0.39586118 0.5870471 -0.6176907 -0.42750376
-0.060517207 0.7798352 -0.15151216 -0.44269222 0.37796363 -0.4080154 -0.36540204 -0.16113663
-0.18356825 -0.15729178 0.5496602 -0.36228332 0.52492887 -0.26190257 -0.42846334 -0.27643502
-0.21318816 -0.39040217 0.05868798 -0.09063095 -0.64000994 -0.6607067 -0.032410897 -0.53417593
0.37366262 -0.12470632 -0.4602658 -0.06126441 -0.49426886 0.38069457 -0.12500916 0.118066184
-0.056380548 0.075655505 0.571901 -0.52486646 -0.28575042 0.5652274 0.40097153 -0.15651342
-0.18182766 0.55124885 0.78438056 0.121497296 0.5064702 0.5556732 0.42623734 -0.201947
0.49121895 0.7542165 -0.018334849 -0.26746413 -0.22052765 -0.40082276 -0.35018876 -0.3611081
-0.09319604 0.015950797 0.63471645 -0.4728209 0.14396705 -0.47539687 -0.5178972 -0.1531988
0.4859637 0.46247607 -0.66251445 0.52797747 -0.10778607 0.32316265 0.55361336 0.53201437
0.031955782 0.24899511 0.08661071 -0.10914678 -0.2578906 0.4160878 -0.4854583 -0.33606774
0.06991457 -0.4838608 0.4319315 -0.20699465 -0.21461566 -0.45768547 0.3060239 -0.6283352
-0.5017396 0.28834397 -0.3286808 -0.34328872 0.12929432 -0.1782098 -0.50299245 -0.026009375
1.0793769 0.42524302 -0.1736272 0.4021681 0.12197135 -0.19585867 -0.347581 -0.357082
0.39724618 0.4743864 -0.5124017 0.31833956 -0.03206882 -0.46572298 -0.111033745 -0.36941326
00000000: 8439 22be 12e6 3ebe 5958 203f 74a0 823e
00000010: 95de efbd 1b8b 1bbe a58b 48be 9989 333f
00000020: b0f7 4dbe 7ab3 f03e 68d9 2cbf ae99 f43e
00000030: 0fa8 b5bd 3d85 2dbf 9678 793f 56c2 f4bc
00000040: b7a9 053f d024 33be ef13 703e 0477 b93e
00000050: 8784 eebe 7473 f0be 406b bb3e 4908 fabd
00000060: 5b95 99be 6b70 f8bd b122 ea3e 85e1 1dbd
00000070: 9763 e63e bfd3 e73d cfa4 fc3e 99ae 013f
00000080: b10b 0a3f 3cd1 a2bd 38fd 2ebd 62d3 dfbe
00000090: 870e 613f 65f4 84bf ac91 eebe 613a c53e
000000a0: 3e41 473f b98b eebe 8b21 bbbd 5780 eebe
000000b0: 52f8 413f e642 563e c27a 85be f090 6e3e
000000c0: 3f46 9b3d 2ae6 223f db88 eebe cd72 08bf
000000d0: b289 0b3f b3a8 373f 08bf d6be c14d 9ebe
000000e0: 0250 443f d434 2e3f ae02 a93e 9381 583f
000000f0: 9564 5d3f 427c 4f3f a75a 413d 540a 5c3f
00000100: c0fa 82be cdd9 8e3e 2d22 943e eeef 913e
00000110: 5d62 ce3e 8605 f1bc e01b 0e3f db92 10bf
00000120: 7b8a 073f 9668 423f 6ddd e83e 0ec5 063f
00000130: 4ace a9be 1c40 103f 2f7c 17bf 22e1 7c3e
00000140: 0091 67be 7d4f 843e bb5e b3be 371c b8be
00000150: 03f8 e83e f9bd 093f 43c0 01bf 1ae6 a93e
00000160: 15cc 21be a7fd 313f a7b1 95be bb88 b0be
00000170: 4275 ee3e 336d 39bf 08a8 0b3f daa7 073f
00000180: c786 eebe f9da ccbe 501d f43e 5b1a f93e
00000190: 663c eabe aa93 c2bd 30a8 e6be d526 173f
000001a0: a4e3 5a3e 0470 fbbe b346 64be 0d55 e03e
000001b0: c9e2 29be 38b9 f93d 3134 bb3e 47eb 853f
000001c0: 8185 aebe 9ef7 29be 674c b13e e4c0 01bf
000001d0: 442f 8e3e bbb6 313f 210b 833e 09ee 843f
000001e0: 55ca 223f 3094 f1be 43e1 c83d 2caa be3e
000001f0: 9ed6 6c3e 4aeb b23e a7c6 e33e effe fb3e
00000200: 128f 7f3e e925 053f 4c8b ab3e 4adf a83e
00000210: 1b4a dc3e 0433 c93e c484 d63e c696 ec3e
00000220: 32fa c03d 1e77 21be 744a 9abe 5a79 90be
00000230: 51ae ca3e b848 163f fa20 1ebf c6e1 dabe
00000240: e4e0 77bd 48a3 473f 0126 1bbe 8ea8 e2be
00000250: 7384 c13e 65e7 d0be fa15 bbbe 0001 25be
00000260: 51f9 3bbe 1911 21be 88b6 0c3f 337d b9be
00000270: bd61 063f 1818 86be 8c5f dbbe e488 8dbe
00000280: ff4d 5abe cbe2 c7be cf62 703d b89c b9bd
00000290: b1d7 23bf 1324 29bf 4ac1 04bd c1bf 08bf
000002a0: b550 bf3e 0766 ffbd f5a7 ebbe 64f0 7abd
000002b0: cf10 fdbe 66ea c23e 6702 00be afcc f13d
000002c0: 4aef 66bd 46f1 9a3d 1b68 123f a65d 06bf
000002d0: e14d 92be beb2 103f 244c cd3e 0e45 20be
000002e0: 0831 3abe a51e 0d3f 2acd 483f 93d3 f83d
000002f0: 08a8 013f 9940 0e3f c83b da3e 32cb 4ebe
00000300: 0d81 fb3e 5514 413f f732 96bc 0ff1 88be
00000310: 00d2 61be a438 cdbe f14b b3be 29e3 b8be
00000320: 91dd bebd 3fab 823c c77c 223f 9515 f2be
00000330: 196c 133e 3867 f3be e994 04bf 25e0 1cbe
00000340: 3cd0 f83e aac9 ec3e 8c9a 29bf 8829 073f
00000350: f1be dcbd 9375 a53e 9bb9 0d3f 1832 083f
00000360: 11e4 023d 93f8 7e3e f560 b13d 5988 dfbd
00000370: 3d0a 84be 7609 d53e fe8d f8be 1211 acbe
00000380: 5f2f 8f3d 9abc f7be 2026 dd3e 68f6 53be
00000390: 35c4 5bbe c055 eabe 2aaf 9c3e 93da 20bf
000003a0: 0272 00bf d2a1 933e da48 a8be 8ac3 afbe
000003b0: bb65 043e a17c 36be 1dc4 00bf 9d11 d5bc
000003c0: 0629 8a3f 74b9 d93e 54cb 31be fae8 cd3e
000003d0: 1dcc f93d 2d8f 48be 23f6 b1be 74d3 b6be
000003e0: da63 cb3e c6e2 f23e c22c 03bf 67fd a23e
000003f0: 985a 03bd 3e73 eebe a965 e3bd bc23 bdbe

l1.bias f4 [8]
0.46591955 1.3318624 1.1013578 0.79672664 0.8232723 0.5988256 0.55895054 0.40448597
00000000: 028d ee3e 787a aa3f 4bf9 8c3f 47f6 4b3f
00000010: f9c1 523f a24c 193f 6217 0f3f c918 cf3e

l2.weight f4 [8, 8]
-0.2023915 0.03001138 1.1846311 0.9874366 1.8503507 -1.2309793 1.6984923 0.1532341
-0.91867703 1.23836 -0.60601056 1.6347061 -0.6556529 1.4654344 -0.63378274 0.5461617
0.4169938 -0.2199146 0.89598113 1.1830772 1.049654 -1.4278984 1.3534526 0.8579306
-0.87912095 0.32528496 -1.053235 1.5533438 -0.006339584 0.92997897 0.68759817 0.82749045
0.4518966 1.6429974 1.9091911 -0.51906556 1.2817373 -0.033267554 0.19249773 -1.2742501
1.6529152 0.0022035525 -0.00060539343 -0.4882528 1.0325241 0.6264168 0.10849536 1.4651629
-1.6128213 0.5637949 1.5541737 1.3571991 -0.067795806 0.6167189 0.70710665 -0.86940736
2.1393118 1.7802291 0.5593932 -1.3562237 0.14497761 1.3053683 -1.5095624 0.61545694
00000000: b83f 4fbe 6dda f53c fea1 973f a5c8 7c3f
00000010: 4bd8 ec3f bb90 9dbf 3268 d93f 66e9 1c3e
00000020: 6b2e 6bbf 9582 9e3f 8223 1bbf 0d3e d13f
00000030: ded8 27bf 5b93 bb3f 963f 22bf 41d1 0b3f
00000040: 3680 d53e 4b31 61be 055f 653f 136f 973f
00000050: 105b 863f 60c5 b6bf ef3d ad3f 57a1 5b3f
00000060: 120e 61bf c08b a63e 68d0 86bf f8d3 c63f
00000070: 49bc cfbb 1a13 6e3f 6f06 303f 6ad6 533f
00000080: fe5e e73e bd4d d23f 6060 f43f 7be1 04bf
00000090: f80f a43f 8f43 08bd 201e 453e a11a a3bf
000000a0: ba92 d33f 7a69 103b 44b3 1eba 45fc f9be
000000b0: c029 843f da5c 203f d132 de3d 758a bb3f
000000c0: ee70 cebf dd54 103f 2aef c63f b3b8 ad3f
000000d0: 87d8 8abd 4ae1 1d3f f104 353f 7b91 5ebf
000000e0: 7cea 0840 8cde e33f 6534 0f3f bd98 adbf
000000f0: 0375 143e 4f16 a73f 5739 c1bf 968e 1d3f

l2.bias f4 [8]
0.13665085 0.42730898 0.5989218 0.055961695 0.7439095 0.06914293 0.7554894 0.75299656
00000000: 33ee 0b3e 3ec8 da3e f052 193f 1738 653d
00000010: da70 3e3f cf9a 8d3d c167 413f 62c4 403f

l3.weight f4 [10, 8]
-1.9906373 0.86947155 -0.9227249 1.0139743 -1.7444952 -1.0764672 0.74855447 -0.49992684
0.71110356 -1.6901426 0.61097735 -0.7061228 -1.0183727 0.3090932 -1.3136436 -0.509099
-0.62273157 0.25431427 -0.0026595022 -3.3273141 0.6529838 -2.8863358 0.5339155 0.15920529
-1.3143257 -1.4567263 0.15582593 -2.4378603 -1.2137723 0.80991334 -0.7069518 0.7275436
-0.31432444 0.47701362 -0.11292226 -0.30961388 -0.032410443 -0.5873206 0.2808119 -0.33518383
0.70217913 -1.2149032 0.5329209 -1.6505904 0.3799855 -1.7121817 0.71066636 -1.3164372
0.16817577 -2.0384474 -0.35219017 -2.1601126 0.8554183 -0.33704466 -0.37503532 0.14599696
0.46019056 0.04945356 0.39188102 1.1155651 -1.8224626 -0.65940535 -0.4452735 -1.613862
-1.2831883 0.55243313 -0.28644535 0.18605408 -1.56914 -0.011795965 -1.3679389 0.43116054
-1.8574656 -0.010044383 -1.4685032 -1.9219433 0.5596621 -0.20712444 -0.29882896 0.65470934
00000000: 34cd febf b095 5e3f b337 6cbf e9c9 813f
00000010: 9e4b dfbf adc9 89bf 44a1 3f3f 69f6 ffbe
00000020: e20a 363f 9856 d8bf 0369 1c3f 77c4 34bf
00000030: 095a 82bf 7741 9e3e 7925 a8bf 5054 02bf
00000040: 566b 1fbf 7b35 823e 0b4b 2ebb b7f2 54c0
00000050: f229 273f bab9 38c0 b0ae 083f b606 233e
00000060: d33b a8bf 0276 babf d590 1f3e e705 1cc0
00000070: e45c 9bbf 7b56 4f3f cbfa 34bf 4c40 3a3f
00000080: 22ef a0be 213b f43e c943 e7bd b685 9ebe
00000090: d0c0 04bd a55a 16bf 94c6 8f3e 379d abbe
000000a0: 03c2 333f f381 9bbf 816d 083f 8c46 d3bf
000000b0: 768d c23e c528 dbbf 3bee 353f 0481 a8bf
000000c0: 4536 2c3e ec75 02c0 4552 b4be 493f 0ac0
000000d0: b2fc 5a3f 1e91 acbe a104 c0be 3a80 153e
000000e0: 199e eb3e d18f 4a3d a1a4 c83e d6ca 8e3f
000000f0: 7446 e9bf cace 28bf e3fa e3be 0893 cebf
00000100: 843f a4bf 426c 0d3f f7a8 92be f684 3e3e
00000110: 94d9 c8bf dd43 41bc 9f18 afbf 13c1 dc3e
00000120: 6fc1 edbf 3291 24bc eaf7 bbbf 3d02 f6bf
00000130: 0446 0f3f 6e18 54be 1c00 99be 089b 273f

l3.bias f4 [10]
-0.084445946 0.418817 0.45974958 0.28460598 -0.22236587 -0.11428801 0.14714411 0.17643152
0.14684406 -0.09322751
00000000: fff1 acbd 2f6f d63e 4c64 eb3e e0b7 913e
00000010: e1b3 63be d50f eabd f2ac 163e 77aa 343e
00000020: 4a5e 163e 11ee bebd
